Model: "CNN"
_________________________________________________________________
Layer (type)                 Output Shape              Param #   
=================================================================
input_1 (InputLayer)         [(None, 48, 48, 1)]       0         
_________________________________________________________________
conv2d (Conv2D)              (None, 48, 48, 32)        320       
_________________________________________________________________
dropout (Dropout)            (None, 48, 48, 32)        0         
_________________________________________________________________
max_pooling2d (MaxPooling2D) (None, 24, 24, 32)        0         
_________________________________________________________________
conv2d_1 (Conv2D)            (None, 24, 24, 64)        18496     
_________________________________________________________________
dropout_1 (Dropout)          (None, 24, 24, 64)        0         
_________________________________________________________________
max_pooling2d_1 (MaxPooling2 (None, 12, 12, 64)        0         
_________________________________________________________________
conv2d_2 (Conv2D)            (None, 12, 12, 128)       73856     
_________________________________________________________________
dropout_2 (Dropout)          (None, 12, 12, 128)       0         
_________________________________________________________________
max_pooling2d_2 (MaxPooling2 (None, 6, 6, 128)         0         
_________________________________________________________________
conv2d_3 (Conv2D)            (None, 6, 6, 256)         295168    
_________________________________________________________________
dropout_3 (Dropout)          (None, 6, 6, 256)         0         
_________________________________________________________________
max_pooling2d_3 (MaxPooling2 (None, 3, 3, 256)         0         
_________________________________________________________________
flatten (Flatten)            (None, 2304)              0         
_________________________________________________________________
dense (Dense)                (None, 128)               295040    
_________________________________________________________________
dropout_4 (Dropout)          (None, 128)               0         
_________________________________________________________________
dense_1 (Dense)              (None, 7)                 903       
=================================================================
Total params: 683,783
Trainable params: 683,783
Non-trainable params: 0
_________________________________________________________________

Model Accuracy : 54.3%